Generator Summary:
Setting up PyTorch plugin "upfirdn2d_plugin"... Done.
==============================================================================================================
Layer (type:depth-idx)                                       Output Shape              Param #
==============================================================================================================
Generator                                                    [1, 3, 256, 256]          --
├─ModuleList: 1-1                                            --                        --
│    └─GeneratorStage: 2-1                                   [1, 64, 64, 64]           5,201
│    │    └─Convolution: 3-1                                 [1, 64, 64, 64]           1,792
│    │    └─ModuleList: 3-2                                  --                        107,648
│    └─GeneratorStage: 2-2                                   [1, 128, 128, 128]        20,641
│    │    └─UpsampleLayer: 3-3                               [1, 128, 128, 128]        8,320
│    │    └─ModuleList: 3-4                                  --                        428,288
│    └─GeneratorStage: 2-3                                   [1, 256, 256, 256]        82,241
│    │    └─UpsampleLayer: 3-5                               [1, 256, 256, 256]        33,024
│    │    └─ModuleList: 3-6                                  --                        1,708,544
├─Convolution: 1-2                                           [1, 3, 256, 256]          --
│    └─Conv2d: 2-4                                           [1, 3, 256, 256]          771
==============================================================================================================
Total params: 2,396,470
Trainable params: 2,396,470
Non-trainable params: 0
Total mult-adds (G): 121.63
==============================================================================================================
Input size (MB): 0.05
Forward/backward pass size (MB): 2910.32
Params size (MB): 9.15
…
==============================================================================================================
Discriminator Summary:
==============================================================================================================
Layer (type:depth-idx)                                       Output Shape              Param #
==============================================================================================================
Discriminator                                                [1]                       --
├─Convolution: 1-1                                           [1, 64, 256, 256]         --
│    └─Conv2d: 2-1                                           [1, 64, 256, 256]         256
├─ModuleList: 1-2                                            --                        --
│    └─DiscriminatorStage: 2-2                               [1, 128, 128, 128]        5,201
│    │    └─ModuleList: 3-1                                  --                        107,648
│    │    └─DownsampleLayer: 3-2                             [1, 128, 128, 128]        8,320
│    └─DiscriminatorStage: 2-3                               [1, 256, 64, 64]          20,641
│    │    └─ModuleList: 3-3                                  --                        428,288
│    │    └─DownsampleLayer: 3-4                             [1, 256, 64, 64]          33,024
│    └─DiscriminatorStage: 2-4                               [1, 1]                    82,241
│    │    └─ModuleList: 3-5                                  --                        1,708,544
│    │    └─AdaptiveAvgPool2d: 3-6                           [1, 256, 1, 1]            --
│    │    └─Linear: 3-7                                      [1, 1]                    256
==============================================================================================================
Total params: 2,394,419
Trainable params: 2,394,419
Non-trainable params: 0
Total mult-adds (G): 21.30
==============================================================================================================
Input size (MB): 0.79
Forward/backward pass size (MB): 1115.68
Params size (MB): 9.15
…
